drone_detector/best_drone_detection_model.pth (torch, 37941 bytes, 34 tensors)

feature_scaler.weight f4 [21, 21]
000000 8a 9c 05 3f b4 eb f9 bc 6a 8a 79 3d ea 48 26 bd
       0.52191985 -0.0305079 0.060923018 -0.04059688
000010 a3 eb 47 3d e0 a8 e3 3b 13 c2 2c bd d5 a7 f4 bb
       0.048808705 0.0069476217 -0.04217727 -0.007466296
000020 64 31 64 3d cb cd cf bc c2 fd 17 3d 0a 95 be bd
       0.055711165 -0.025366684 0.037107237 -0.09305771
000030 b4 43 c3 bd ac b6 dc bc 10 63 fe 3b ee c4 77 bc
       -0.09534398 -0.026942573 0.007763274 -0.015122635
000040 73 81 3d bc 33 57 53 bd 15 89 8f 3c 6f 4a ea bb
       -0.011566508 -0.05159683 0.01752142 -0.0071499865
000050 9a 83 6a bd 66 8f 82 3d 07 c8 00 3f a1 46 39 bd
       -0.05725441 0.06375007 0.5030522 -0.045233373
000060 47 53 0b 3a c2 97 3a bc 89 9f c0 bc 63 4b 16 bd
       0.00053148385 -0.011388721 -0.023513572 -0.036692988
000070 3d 43 4c 37 75 1b 8d 3d a3 82 fb bb 9c 3c 53 bc
       1.2175003e-05 0.06890003 -0.007675485 -0.012892868
000080 41 c9 cf bc 32 87 cb bc a9 db 03 bc be 15 a6 bc
       -0.02536452 -0.02484474 -0.0080479765 -0.02027404
000090 32 02 3e 3d 65 67 9f 3c 4e 77 90 bd 33 b3 b2 bc
       0.046388812 0.019458482 -0.070540056 -0.021813964
0000a0 9f ab 0d 3d 09 e0 8e 3b fd 7d 7e 3b b1 c0 31 bc
       0.0345875 0.004360203 0.003883242 -0.010849164
0000b0 fe 67 01 3f 20 70 00 bc a6 d5 17 3d d0 47 f8 bc
       0.50549304 -0.007839233 0.037068985 -0.03030768
0000c0 1e 08 91 3c 25 a7 c1 bc 9c e7 1e bd 7f 6c 6a 3c
       0.017704066 -0.023639271 -0.0387951 0.014308094
0000d0 f1 69 e5 3c 27 ed c3 3b 84 d1 79 3d 85 6e 58 bc
       0.028004618 0.0059791985 0.060990825 -0.013209944
0000e0 bf 13 41 3d 54 c4 5b bc e4 0a 23 bc 4a 6d 20 3d
       0.047137972 -0.0134135075 -0.009951327 0.039166726
0000f0 0e 25 ff 3c c9 e4 ad bc a6 e9 73 3c 75 e4 96 3b
       0.031145599 -0.021227257 0.014887249 0.004604871
000100 a4 c0 a1 bc d6 f4 5f 3c 81 82 bf 3e 3c ad 0e 3d
       -0.019745179 0.013669213 0.37404254 0.034833178
000110 a5 c0 98 bd b3 25 13 3d e9 13 9c bb 0a 18 8f bc
       -0.07458619 0.035924625 -0.0047631157 -0.017467517
000120 15 b3 25 bd df 39 17 3d 56 85 a6 bd 11 f4 dd bc
       -0.04045399 0.036920425 -0.081309006 -0.027093919
000130 d5 6d f8 3b 5f 3c 75 3d ca 60 b1 3c 13 88 b5 3c
       0.0075814524 0.059872027 0.021652598 0.022159612
000140 05 aa 3b bc 0a f7 fa bb 94 d4 3d bd 01 f8 1d 3d
       -0.01145411 -0.007658844 -0.04634531 0.038566593
000150 b4 8c 12 3b 83 18 86 3c ef 1b 82 bc 14 1d 2c bc
       0.0022361698 0.01636911 -0.01588246 -0.01050498
000160 7c e6 9d 3e 91 e2 12 3d 81 02 67 3d 9f 95 2c 3c
       0.30839908 0.0358606 0.056398872 0.010533719
000170 a2 66 3a 3d 98 6f 08 3d 3f 71 f8 bc 96 08 bf bd
       0.045508035 0.03330955 -0.030327437 -0.093278095
000180 20 42 6d bd 4c 18 16 bc 9d 96 21 bb 5e 85 9e 3a
       -0.05792439 -0.009161066 -0.0024656423 0.001209419
000190 2f 84 da bc 1e 64 1a bd 43 38 3b 3c 10 29 65 bc
       -0.026674358 -0.037693135 0.011426988 -0.013986841
0001a0 ab ce d6 3c 98 75 8f bd 90 be 7d bd 9e b8 68 3a
       0.026221594 -0.07004851 -0.061949313 0.0008877608
0001b0 e6 f8 4a 3c 8f 40 6d bd db 09 d4 3e 23 b6 bf 3d
       0.012388444 -0.057922896 0.4141377 0.09360912
0001c0 a3 56 9a 3c 59 16 1c bd c4 9e ed 3c c8 23 24 bd
       0.01884014 -0.03810725 0.02900637 -0.040073186
0001d0 9f 87 07 3d 0d 91 55 3c a8 e1 3f bd 66 59 4d 3c
       0.033088323 0.013035071 -0.046846062 0.012533521
0001e0 bf 18 2a bb 05 a0 90 bb c9 99 0f 3c e1 0e 81 3d
       -0.0025954691 -0.004413607 0.008764693 0.06301666
0001f0 5b 3d 75 bb 1b a3 56 bd 6d ee 40 3c 29 4b b1 3c
       -0.0037420604 -0.052401643 0.011775595 0.021642284
000200 73 58 2a bd 4a 1b 1f bd 98 cb 21 bd 61 22 09 39
       -0.041588258 -0.038844384 -0.039500803 0.00013078145
000210 dd 05 f0 3e 5b aa bf bc 58 37 98 bd ea 44 88 3b
       0.46879473 -0.023396662 -0.07432431 0.004158606
000220 87 1e 00 3c 67 52 02 bd f5 c6 08 3d 21 36 b0 38
       0.007819778 -0.031816866 0.033392865 8.402416e-05
000230 0c 07 59 bd 6b b5 10 bd fa a9 06 bd 8e 10 a2 3b
       -0.052985236 -0.035329264 -0.032876946 0.004945821
000240 c5 91 1b bc 2f a5 72 bd e0 fc 5e 3d e2 2b 54 bc
       -0.009495203 -0.059239563 0.05444038 -0.012949916
000250 c0 d9 47 bd af 99 14 3d 1a ef d9 3b 1e 03 8b 3c
       -0.048791647 0.036279377 0.0066508176 0.01696926
000260 75 0e fd 3c fc a9 3a bc eb ad 24 3e af 00 84 3c
       0.030890683 -0.0113930665 0.1608197 0.016113607
000270 aa ec 5a 3c 05 e7 c0 3c 86 16 04 3d 3b 82 0d 3c
       0.013362089 0.023547659 0.032248043 0.008637006
000280 d7 86 5d bd 88 f2 1e 3c 76 a5 a0 bd de c6 51 3d
       -0.05408367 0.009701379 -0.07844059 0.051215045
000290 1c fb aa 3c 85 7f 28 3c 1c cc b1 3a 98 9c 3c bc
       0.020871691 0.010284309 0.0013564858 -0.011511944
0002a0 0b c9 a3 3d 19 9c 86 3d 57 2f 8d bd 29 f1 2a bd
       0.0799733 0.06572742 -0.06893795 -0.041733894
0002b0 62 97 9c bc 37 a8 8a 3d f5 b1 a1 3a 36 ee 54 bc
       -0.019115154 0.06770366 0.001233636 -0.012996247
0002c0 82 81 18 3f 4b d9 2d bd 85 6e b4 3d a6 b3 66 bd
       0.59572613 -0.042443555 0.088101424 -0.05632367
0002d0 b8 65 b5 3c ea e6 f8 bc df b4 3d bd b4 69 a4 bc
       0.02214323 -0.030383546 -0.04631507 -0.020069934
0002e0 45 6f 03 bd 9e 3a 56 bd 7d 56 64 bd 51 0f 11 bb
       -0.032088537 -0.052301995 -0.055746544 -0.0022134373
0002f0 df 18 af 3c 68 14 f0 bc 80 b9 7b 3c d2 23 cd bd
       0.021374164 -0.029306605 0.015364051 -0.10016598
000300 39 c5 86 bc ac 03 29 bd f0 8d ec 3c c4 34 bb 3d
       -0.016451465 -0.041263267 0.028876275 0.091409236
000310 e8 cc 46 bc 55 40 82 bd 67 6e 03 3f 38 11 a1 bd
       -0.012133814 -0.063599266 0.51340336 -0.07864612
000320 86 86 bd bb 73 43 eb bd 6c b2 48 bd ca fc 6e bc
       -0.0057838587 -0.11487474 -0.04899828 -0.014586637
000330 62 52 dd 3c c3 ba 7b bd 43 7f f5 bd 24 36 9f 3c
       0.027016822 -0.061457407 -0.11987164 0.019434996
000340 e7 1d 8c bc 59 be b2 3b 14 39 9f 3d 8f fe 2d 3d
       -0.017104102 0.00545482 0.07774559 0.042479094
000350 0d f2 02 bd df 90 20 bd bc 26 be 39 22 84 32 3d
       -0.03196912 -0.03920066 0.00036268483 0.043583043
000360 1b af cf bc 16 b3 b4 bb 9e 9b bb 3d 69 97 0f 3d
       -0.025352051 -0.005514513 0.09160541 0.035056505
000370 fe ad 0c 3f d1 47 be bd b3 7d 1a bd e8 7f 41 3d
       0.5495299 -0.09291042 -0.037717532 0.04724112
000380 4c a9 1b bc 78 14 88 3c f5 34 c1 bd 43 99 a6 bd
       -0.009500813 0.016611323 -0.09433929 -0.08134701
000390 0a 5e b4 3b 42 1a ef bb 60 02 4b 3d de 68 3c bd
       0.0055043744 -0.0072968313 0.04956281 -0.045998447
0003a0 8a da 02 3d 6d f2 33 bc 0b 35 11 bd f3 6d a7 3c
       0.031946696 -0.010983092 -0.035450976 0.02043817
0003b0 e7 8f ba 3d 99 ce a6 bd 9a 8e 68 bd 76 b6 a3 bc
       0.091094784 -0.08144874 -0.05677662 -0.019984465
0003c0 b2 37 0b 3d fc 88 a9 bd 94 7c 27 3f 00 f3 cf bd
       0.033988662 -0.08278081 0.65424466 -0.101537704
0003d0 4d f1 62 3c e3 93 fd bc b9 19 67 bd 05 78 8a bc
       0.013851476 -0.030954307 -0.056421015 -0.016902933
0003e0 72 11 ab 3c 0b 76 3b bc 46 32 9c bb 81 fe e4 bc
       0.020882342 -0.011441718 -0.0047667352 -0.027953388
0003f0 dd 08 d9 3c 57 69 60 3d 97 b1 14 bd 24 e3 be bb
       0.026493484 0.05478796 -0.036302175 -0.005825417

fc1.weight f4 [32, 21]
000000 02 65 76 ba e1 82 6d 3d 92 22 48 3d b6 67 c1 bd
       -0.00093992066 0.057986144 0.048861094 -0.094436094
000010 64 4d b3 bd 9c 49 99 3d 4b ce 5f 3d 38 0c ee ba
       -0.087549955 0.07484743 0.054640096 -0.00181616
000020 c1 c0 b3 3c f1 68 4a 3d 5d ba 19 bd 0b 51 8c 3d
       0.021942498 0.049416486 -0.037531245 0.06851395
000030 8e f7 0f 3e bd 83 b9 bd b8 ac e3 bc 20 41 69 3d
       0.14059278 -0.0905833 -0.02779232 0.056946874
000040 80 27 cb bd 3a b0 7c 3d 96 ee a4 39 f6 86 83 bd
       -0.099196434 0.0616915 0.00031458278 -0.06422226
000050 b7 02 67 bd 4e 7c 65 3c 4f 72 9e bd 4e 31 8b bc
       -0.056399073 0.014006687 -0.077366464 -0.016991284
000060 0a 72 ae 3d 37 2b 87 bc 6d a6 39 bd c2 f3 ad 3d
       0.08517845 -0.016500099 -0.04532473 0.08493759
000070 09 10 a1 bd 27 33 68 3d 49 af 7b bd 44 13 3c 3d
       -0.078643866 0.056689408 -0.06144646 0.04591681
000080 6d b8 0a be 21 2e 54 3e 54 f0 d0 3d fe 24 72 3d
       -0.13546915 0.20720722 0.10202089 0.05911731
000090 b1 75 08 3c ec 6b 06 be b9 67 15 be 3a 59 96 bd
       0.008328841 -0.13127106 -0.14590348 -0.07341237
0000a0 0d 73 d3 bd 7f 89 bc bd 49 ad 87 3e a7 3f 68 bd
       -0.103246786 -0.09205913 0.26499394 -0.05670133
0000b0 d3 ae c9 3d ca dd d0 3d d3 21 03 bd 7d 2b d9 bc
       0.09847798 0.10198553 -0.03201468 -0.026509995
0000c0 93 f5 00 bd 7a 7c 85 3d de d4 6a bd dc 0e 2c bd
       -0.031484198 0.06517883 -0.057331912 -0.04200636
0000d0 64 73 f0 bc 98 91 a4 bd 30 b9 b5 3d cf b5 0f bd
       -0.029351898 -0.08035582 0.08873212 -0.035085496
0000e0 7d ad e2 3d 23 59 74 3d f3 29 91 3d b4 02 17 be
       0.110682465 0.05965532 0.07088079 -0.14747125
0000f0 46 e5 ab bd 10 9c bb bc a6 e1 3b bc 7a 31 f8 3c
       -0.0839334 -0.022901565 -0.011467373 0.03029703
000100 67 34 32 3c 61 01 f0 3d 50 84 1b 3c 35 c3 43 bd
       0.0108767515 0.11719013 0.009491995 -0.047793586
000110 2b f6 02 3d 66 b5 ad 3c f5 79 22 3d 23 25 2e 3e
       0.031973045 0.021204662 0.03966709 0.17006354
000120 d3 06 43 be fa 01 8e bd 50 32 24 be 6b a3 92 3d
       -0.19045572 -0.06933971 -0.16034818 0.07160076
000130 23 31 d4 bc 95 81 fc bd 3a 87 30 be d2 84 50 bd
       -0.025902336 -0.12329403 -0.17239085 -0.050907917
000140 6d 9a 38 bc f5 0a 32 bc cf 50 15 3d e0 db 23 bc
       -0.011267287 -0.01086687 0.03645402 -0.010001153
000150 ec 18 7b bd a3 5e b7 3d 07 28 8c bd 1b a1 3f bd
       -0.061303064 0.089535974 -0.06843572 -0.0467845
000160 ec b6 13 3d dd 07 a4 3c 37 9e d6 3d d4 b9 97 bd
       0.03606312 0.02002328 0.10479396 -0.07408491
000170 9a 4f 36 3d 8b 95 62 3d 1e 92 e4 bd 76 9a fe 3d
       0.044509508 0.055318397 -0.11160682 0.12431805
000180 e6 5a c1 3c 47 5c e7 bd 81 a2 16 3e 6d 40 ef 3b
       0.023602914 -0.112968974 0.14710428 0.0073013813
000190 f8 32 5f bc 4a 8f cb 3c 9e 5a dd 3d 0e bc c3 bd
       -0.013622992 0.024848599 0.108082995 -0.09557353
0001a0 c6 ad f9 bd 6e d4 1f 3e 29 7c f6 bd 63 84 55 bd
       -0.12191348 0.15608379 -0.120354004 -0.052128207
0001b0 2b 4d 74 bd 03 e5 d9 3c 85 62 96 3d a4 e9 74 3b
       -0.059643906 0.02659846 0.0734301 0.0037370706
0001c0 85 3b 2e 3d ac 08 88 3d db 73 53 bd 48 a8 02 3e
       0.04253723 0.06642279 -0.05162416 0.12759507
0001d0 4b ea be bd 82 7f 15 be 38 38 fb 3d 01 a6 66 3d
       -0.093220316 -0.14599422 0.12266582 0.056310657
0001e0 53 b9 b0 3d d3 8b 42 3d 53 0a 02 3d 4e ef a9 bc
       0.08629098 0.047496628 0.031748127 -0.020743992
0001f0 3d 23 99 bd 27 a2 ce 3c 0a 1b 9d bd e1 d2 b5 3d
       -0.07477424 0.025223805 -0.07671173 0.088781126
000200 65 0e bb 3c ec f3 8a bc f6 bb 1e 3d 17 77 9a 3d
       0.022834012 -0.016962014 0.038753472 0.07542246
000210 09 a8 3f 3e 2d 71 ed bc 1d f5 02 bd 67 4f a1 3d
       0.18716444 -0.02898463 -0.03197204 0.07876473
000220 d7 ce 0c bd 9c e4 f3 bd 81 ac 00 be 54 81 d3 bc
       -0.034376945 -0.11908838 -0.12565805 -0.025818504
000230 9a 99 99 3d 7f 9a d0 3b 9e a0 57 bd aa e9 81 bc
       0.075 0.0063660736 -0.05264341 -0.01585849
000240 ee 46 a5 bc f3 40 e0 bc ca 80 e9 bb 3c d4 77 3c
       -0.020175423 -0.02737472 -0.0071259486 0.015126284
000250 42 c6 ff 3d 1f 02 2e be 0b f4 eb bb f7 c0 20 3d
       0.124889866 -0.16992997 -0.007200723 0.039246526
000260 ee 71 36 3d d1 e7 7c bd 1f cf 8b bc 99 cb 8b 3d
       0.044542246 -0.061744515 -0.017066536 0.068259425
000270 b2 9d 58 3d 32 72 1d 3e cf b7 5e 3e 9d 47 9b 3c
       0.052884765 0.15375593 0.21749805 0.018955046
000280 79 cb 7f 3d 72 2f 7e bd cd db cf 3d b3 ce f8 bc
       0.062449906 -0.062056966 0.101493455 -0.030372
000290 a8 93 80 bd e7 c4 57 3d d6 a9 c3 3d 7e 45 63 3d
       -0.06278163 0.052678015 0.09553878 0.055486195
0002a0 0b 54 d1 bd 88 2a 51 be fa 8e ee bd 93 72 a0 3d
       -0.10221108 -0.2042638 -0.11648364 0.07834353
0002b0 9a 98 8a bd 23 30 3e 3d 15 aa 23 3e 03 9e 67 3d
       -0.06767388 0.046432626 0.1598285 0.056547176
0002c0 9c 72 8e bd a0 c7 bd 3d a2 de 0d 3d 72 1e 42 be
       -0.06955454 0.09266591 0.034636147 -0.18956926
0002d0 d8 26 84 3c 3e c4 70 bd d5 72 87 3d e1 70 34 3e
       0.016131803 -0.0587809 0.06613699 0.17621185
0002e0 5b cf be bd 21 88 02 bd 77 c3 b8 bc 7a 6d 9d 3c
       -0.09316894 -0.031868104 -0.022554142 0.019217242
0002f0 18 b9 96 bd 8e c4 4b bd 5e 54 76 bd 6c d0 6c 3d
       -0.073595226 -0.049747996 -0.060139053 0.057815954
000300 0e 9e 29 3d 84 5e 95 3d 81 b1 12 3e 14 07 26 3e
       0.0414105 0.07293418 0.14325525 0.16213638
000310 bf e6 4e bd f0 b4 ef bd 8d dd 64 3d a3 d4 98 3c
       -0.050513025 -0.11704433 0.05587535 0.01865608
000320 55 82 ff bd dc 37 82 3c c9 06 13 3d 6b 3a 2f 3e
       -0.12476031 0.015895776 0.035895143 0.17112128
000330 fc 04 64 3d 2d cd 3f bc 5e 6a 44 bd aa f3 80 3d
       0.055668816 -0.011706633 -0.047953002 0.06296475
000340 5f b5 ba bd 88 f6 83 bc 09 e7 a2 bd 45 bc 2d bd
       -0.09116625 -0.016108766 -0.07954223 -0.042415876
000350 d5 2c 2d bd 42 e3 2d bc da 05 76 bd 2c 9c df 3c
       -0.042279083 -0.0106132645 -0.060064174 0.027296148
000360 b2 92 14 3b 38 ce ed 3c 05 b7 75 be b0 8d e5 bd
       0.0022670445 0.029028997 -0.23995598 -0.11208665
000370 f3 e8 1a be d2 a1 18 3d 02 c4 56 3d 4b 29 75 bd
       -0.15127926 0.0372637 0.05243302 -0.059853833
000380 b3 52 3e be 6e 70 16 3e e8 98 44 be dc e5 a4 3d
       -0.18586235 0.14691326 -0.19198954 0.08051655
000390 d4 83 aa 3d d2 92 8d 3c 40 8b 6e 3c 66 75 6a 3d
       0.083259255 0.017281923 0.014559567 0.057240866
0003a0 c9 8f de 3d 67 67 b1 3d 85 4b 07 3d 46 76 a9 bd
       0.108672686 0.086623006 0.033031005 -0.08274512
0003b0 96 da 08 be fe d7 0f bd 22 03 23 bd 2d 1d 0f 3e
       -0.13364634 -0.035118096 -0.03979791 0.13975973
0003c0 24 06 a3 bd 21 d8 cf bc 3a 74 82 bd 51 57 64 ba
       -0.079601556 -0.025371613 -0.06369825 -0.0008710521
0003d0 18 e8 09 be 13 dc 4f 3d a9 22 6e 3c 9b 39 b1 bd
       -0.13467443 0.05074699 0.014534631 -0.086535655
0003e0 07 5f 21 bd f2 5a 0a be bb b4 f9 bc 5e 6e 54 bd
       -0.039397266 -0.13511255 -0.030481687 -0.051863067
0003f0 71 17 64 3c 6c d5 5c 3d 14 5b 30 be f1 6b bf bc
       0.0139216045 0.053914472 -0.17222244 -0.0233669

fc1.bias f4 [32]
000000 94 90 0d b4 63 bb 1e 34 3a fc b4 34 ae 86 69 b4
       -1.3184246e-07 1.4783068e-07 3.3711132e-07 -2.1748812e-07
000010 3d a9 74 b4 c2 54 0e 33 ef 81 f5 32 e0 94 3d b1
       -2.278584e-07 3.3139038e-08 2.858084e-08 -2.7587745e-09
000020 4a a8 60 b3 d3 1a 95 b4 cc 9b 6f 32 9f 06 f7 b3
       -5.2307122e-08 -2.777293e-07 1.3947055e-08 -1.1503038e-07
000030 2a d8 ab 33 c6 23 45 b3 1e 93 a8 34 32 17 8b 34
       8.002128e-08 -4.5900173e-08 3.139948e-07 2.5907644e-07
000040 84 e4 3a b2 14 e0 ec 33 a8 31 a5 33 ff 32 9a b3
       -1.0878583e-08 1.1030366e-07 7.692444e-08 -7.18046e-08
000050 60 94 40 32 f5 58 3f b2 7a 88 56 33 b8 ad 91 b3
       1.12096075e-08 -1.113789e-08 4.9949882e-08 -6.783688e-08
000060 10 e4 09 34 42 27 39 33 c4 12 bd 32 12 c4 29 b3
       1.2842088e-07 4.3109374e-08 2.201103e-08 -3.9526704e-08
000070 5d 38 92 34 75 32 fb b3 49 61 93 32 8c 08 08 33
       2.723563e-07 -1.16972764e-07 1.7157292e-08 3.167274e-08

bn1.weight f4 [32]
000000 dc 8c 8a 3e 65 19 86 3e b4 a4 a3 3e 66 71 b1 3e
       0.27060592 0.2619125 0.31961596 0.3465683
000010 c8 57 9b 3e 83 d0 a5 3e f4 14 b1 3e ac b8 b4 3e
       0.3034041 0.32385644 0.34586298 0.35297143
000020 a8 d2 b4 3e 29 d4 b3 3e a3 22 b9 3e 19 f6 8f 3e
       0.35316968 0.35122803 0.36159238 0.28117445
000030 6a 93 93 3e 3a fa aa 3e be 0d a9 3e 05 ca af 3e
       0.28823406 0.33394033 0.33018297 0.34333816
000040 23 5b c1 3e 9c 88 9c 3e 2a bf 8f 3e d1 9b a0 3e
       0.37764844 0.30572975 0.28075534 0.31368878
000050 d5 9e bd 3e 55 5f 89 3e d1 80 ae 3e 0c 1c bd 3e
       0.37035242 0.26830545 0.34082654 0.3693546
000060 00 dd ac 3e 3e c2 a9 3e da f8 ca 3e ba 74 c0 3e
       0.3376236 0.33156008 0.39642984 0.37589055
000070 e6 90 af 3e c9 a4 ba 3e ed 4c 92 3e 1d f0 8e 3e
       0.34290236 0.36453846 0.28574315 0.27917567

bn1.bias f4 [32]
000000 27 01 84 bd cb 83 50 3c e1 29 81 bd 5b 9c 7d bd
       -0.06445532 0.012726734 -0.06306816 -0.06191669
000010 7b 62 49 bd d8 7c 3a bd 43 39 3e be 55 dd 82 bd
       -0.049166184 -0.045529217 -0.18576531 -0.06389872
000020 52 b8 27 be 9d 5f 92 bd ec b0 8a 3a 3f 13 44 bd
       -0.16378906 -0.07147143 0.0010581291 -0.047869917
000030 42 63 76 bc a1 38 bb bc 79 a8 1a be 34 04 4d 3c
       -0.015038313 -0.022854151 -0.1510333 0.012513209
000040 f8 2a 3c be b2 f1 ae bd 59 4c 9d bd 62 5b 44 bd
       -0.18375766 -0.085421935 -0.07680578 -0.047938712
000050 55 d2 cd bd 5c e2 85 bd 40 49 91 bd 02 76 aa bd
       -0.10049883 -0.06537315 -0.070940495 -0.083232895
000060 fc 79 dc bd 79 16 9d 3c 62 2e f8 bd 3b 96 a0 bd
       -0.10765454 0.019175755 -0.12118222 -0.07841154
000070 65 d2 a7 bd 61 f4 4b bd 03 e0 c0 bb 9f c4 4e 3c
       -0.081944264 -0.049793605 -0.0058860793 0.01262012

bn1.running_mean f4 [32]
000000 5a b6 7a bb 56 b3 08 3c ca 30 0f 3c c8 d5 e7 b9
       -0.0038255663 0.008343538 0.00873966 -0.00044219033
000010 23 1c af bb 68 36 43 3c 07 ba 00 3c a0 d4 03 bc
       -0.0053439303 0.011914827 0.007856852 -0.008046299
000020 62 f6 4e 3c d5 15 70 3c 5c f0 c7 39 7a c9 12 bb
       0.012631984 0.014653643 0.0003813532 -0.0022397921
000030 c5 4f 17 bb 86 fd b9 ba a4 f9 e6 3b e6 d8 28 bb
       -0.0023088318 -0.0014189936 0.0070488025 -0.0025764047
000040 60 f4 bb 3b 98 4e fd ba d3 23 fd bb 81 1e e4 3b
       0.005735919 -0.0019325791 -0.007725218 0.006961644
000050 42 af 1d 3b f9 c9 ab bb 78 cf 7f 3b 9a 37 41 bb
       0.002406076 -0.005242583 0.0039033573 -0.0029482604
000060 26 11 e2 ba 03 e7 ec 3a c7 93 81 3b fa ec 31 bb
       -0.0017247542 0.0018074218 0.003954384 -0.0027149306
000070 18 ef 1e bb ed 34 02 3b 06 89 09 3c 2b bf 40 3c
       -0.0024251398 0.0019867972 0.008394485 0.011764328

bn1.running_var f4 [32]
000000 ce 9b a6 3c ff 9f 21 3d 3c 24 e2 3c 07 33 ba 3c
       0.020337965 0.039459225 0.027605169 0.02272941
000010 38 b1 c8 3c f1 8d db 3c 66 0d 19 3c ed e1 46 3d
       0.024498567 0.026801081 0.009341573 0.048555303
000020 9f c3 8c 3c fe df 8a 3c ac 1d d0 3d 32 7e 70 3c
       0.017183123 0.01695251 0.101619095 0.014678525
000030 35 ae 9e 3c 75 c0 29 3d ec c5 c0 3c 3f ed 29 3d
       0.019370178 0.041443307 0.023531877 0.04148602
000040 c1 5f 9b 3d 9e e0 b1 3c 97 0a e3 3c e6 ae 0c 3d
       0.07586623 0.021713551 0.02771501 0.034346484
000050 0d 36 f4 3c 96 33 38 3d c1 82 88 3c 0d 20 18 3d
       0.02981093 0.04497107 0.01666391 0.03713994
000060 f8 82 63 3d d7 65 48 3d 58 25 d4 3d b4 a9 37 3d
       0.055544823 0.048925247 0.10358685 0.044839576
000070 fe ea 01 3d d2 58 3d 3d 2f 84 e4 3c 9d 6b 05 3d
       0.031718247 0.046227284 0.027895061 0.03257333

fc2.weight f4 [16, 32]
000000 f9 81 1c 3c 39 5c 15 bc 3a be 79 3d 49 70 9b 3c
       0.009552472 -0.009116226 0.06097243 0.01897444
000010 a2 6c a0 3c 96 d9 1c 3c 02 11 8a bd 5e eb 00 3d
       0.01958305 0.009573361 -0.06741525 0.031474464
000020 b0 5d 85 bd 7d 6f bf bd d0 50 b5 bb 77 b9 6d 3d
       -0.0651201 -0.093474366 -0.0055333152 0.0580382
000030 ad 76 78 3d cf b7 40 bd a6 0b 4e bd 8d 22 e3 bc
       0.060660053 -0.047050294 -0.050304078 -0.027726436
000040 6e 7b 43 bd 9c 4e 19 3d b6 83 0e 3d 94 8e 79 3c
       -0.047725134 0.037428483 0.034793578 0.015231747
000050 24 81 70 3c 97 3c a8 3c ea cf b0 bb de 0b 1b bd
       0.014679227 0.020536704 -0.005395879 -0.037853114
000060 9a 19 18 bc d3 71 9c ba 61 4e 65 bc ff 55 a6 bb
       -0.009283448 -0.0011935778 -0.013995738 -0.0050761695
000070 a3 01 10 3d d9 23 21 bd b1 76 b8 bc 30 87 f0 3c
       0.03515781 -0.039340828 -0.022517534 0.029361337
000080 3c c0 a3 bd d4 81 d9 bd 69 95 af bd 17 b9 c9 bd
       -0.0799565 -0.10620466 -0.085734196 -0.09849756
000090 e0 25 45 bc 78 48 b4 bd d3 92 86 bd 13 ba e8 bb
       -0.012032956 -0.08802885 -0.06570973 -0.00710226
0000a0 99 8f 60 bd dd f5 1e bc b3 0e 9d 3d 42 8b 00 bd
       -0.054824445 -0.009702173 0.07668819 -0.031382807
0000b0 3b 21 0e 3c a2 26 b1 3d 30 cb b4 3d fa 21 c4 3d
       0.008674915 0.08649947 0.088278174 0.09576793
0000c0 47 0e 63 3c c9 2b 31 bd 03 dc 68 3c e8 b9 f4 bd
       0.013858384 -0.043254647 0.014212611 -0.11949521
0000d0 52 0d 77 bd 1c 76 00 bd 17 6c 1b bd cb 95 12 3d
       -0.060315438 -0.031362638 -0.03794488 0.035787385
0000e0 f2 30 66 3d 3a 14 04 bd dd e3 ff 3a 38 c7 0b be
       0.05619902 -0.032245852 0.0019522865 -0.13650215
0000f0 5b c8 5b bd 0b 3a 8e 3b 6f 91 be bd 59 85 86 bd
       -0.05365787 0.0043404154 -0.09305083 -0.06568403
000100 44 86 2d 3d be ef 0f be dc 32 15 be a9 a8 a1 bd
       0.042364374 -0.14056298 -0.14570183 -0.078934975
000110 96 44 b2 bd c3 67 49 be 0b 99 c8 bd 7f 96 bb bc
       -0.08704488 -0.19668488 -0.09794816 -0.02289891
000120 73 5b 1c bd 7a 0e 9b bd 83 90 3a bc 5e 3f a1 bd
       -0.03817315 -0.075711206 -0.011386993 -0.078734145
000130 3c 19 0f 3c 6a 5f 78 3d 3c 47 85 bd d6 a3 3c 3e
       0.008734044 0.06063787 -0.065077275 0.18421873
000140 bf 69 07 be ef 5e a0 bd de 8f 20 3b ca c8 a5 bd
       -0.13223933 -0.07830607 0.0024499814 -0.08094938
000150 8f eb 2a be 3a 2a 41 bc e5 97 8a 3c c7 85 a2 3c
       -0.16691421 -0.011789853 0.016918132 0.01983918
000160 ce 4c 24 bd 76 1b 86 bd e1 39 59 3e 9f 7d b1 bd
       -0.04011231 -0.065482065 0.21213485 -0.086665384
000170 e3 5f 82 bd a9 47 db bd b0 bd fa bb a9 0d 06 be
       -0.06365945 -0.107070275 -0.007652007 -0.13091148
000180 b4 38 0a bd 20 15 5f 3d 0d e8 f7 3c 83 22 05 bd
       -0.033745483 0.054463506 0.030262018 -0.032503616
000190 87 b5 9f 3c 35 84 54 3c 9f 65 be 3d 37 1b e8 3b
       0.019495739 0.012970974 0.092967264 0.0070833224
0001a0 fa d5 51 3d 31 ed 2a 3c 70 cd 37 3d 30 4e 95 3c
       0.051229455 0.010432527 0.044873655 0.01822576
0001b0 67 07 6a 3c 8b 4c 08 3d 61 1f ad 3d 5d cc 07 3c
       0.014283991 0.033276122 0.08453251 0.00828847
0001c0 c0 8b 1d 3d 15 85 d1 bb 1c f7 f6 bb 2c 99 8f 3c
       0.038463354 -0.0063940384 -0.007536782 0.017529093
0001d0 d8 8c 14 bb 48 c5 2a 3c 63 29 e3 3c 56 45 cd 3d
       -0.0022666957 0.010423012 0.027729696 0.100229904
0001e0 04 d6 ce 3d 0b da ec 3c 49 ba fa 3b 4a 1b bd bb
       0.10099414 0.028912565 0.0076516015 -0.0057710754
0001f0 79 ad 40 3c 62 bb 24 3d bc 5d 78 3c f1 ed ad 3c
       0.011760109 0.040217765 0.015159067 0.021231623
000200 bc 0c 8b 3d f7 fd d1 3c b7 40 87 bd 93 7a 54 3d
       0.06789538 0.025633795 -0.0660414 0.05187471
000210 9c b4 01 3d fe cd c3 3d e8 92 ef bd 29 3b 3e 3d
       0.031666383 0.09560774 -0.11697942 0.04644314
000220 20 a3 db bd cc 14 b6 bd 96 3e 02 bd cb 81 c8 3d
       -0.10724473 -0.088906854 -0.031797968 0.09790381
000230 11 db a6 3d 8a 49 02 bd f6 4e 23 bd 4a 95 3f bd
       0.08147252 -0.031808414 -0.039870225 -0.046773233
000240 79 c6 fa ba bf bb 9f 3d 47 15 86 3d f9 1d 87 3d
       -0.0019132636 0.077994816 0.06547027 0.06597514
000250 67 c8 61 3d bc 84 27 3d a9 cf 79 bd b1 47 80 bd
       0.05512276 0.04089807 -0.060989056 -0.06263674
000260 17 fd 9a bc ed 01 50 3d d1 9a 01 bd ca 39 84 bd
       -0.01891951 0.050783087 -0.031641785 -0.06456335
000270 d6 ee 55 3c 93 b2 25 bd b0 aa 8b bd 17 e3 f4 bc
       0.013057431 -0.040453505 -0.068196654 -0.029893441
000280 0c 9d 9b 3d e4 5e f2 3c 08 9a 1f 3d 42 91 07 bb
       0.07598314 0.029586263 0.038965255 -0.0020685946
000290 ea ac 62 bc 5a 8f 15 3d f2 f1 9a bd dc 81 02 3d
       -0.013835171 0.036513664 -0.07565679 0.031862125
0002a0 06 90 58 bd c9 5a e5 3d 59 f2 f9 3b 64 7c cd bc
       -0.052871726 0.111989565 0.007627767 -0.025083728
0002b0 8a 38 44 bc 19 e4 7a bd d5 30 b2 bd 01 a4 1f bc
       -0.011976371 -0.061252687 -0.0870072 -0.009743691
0002c0 da 6d 56 bc de bd bb bd 36 87 4f 3d 8d 68 6e bc
       -0.013087714 -0.09167074 0.050666057 -0.014551294
0002d0 42 e1 93 3d a3 6d a2 3d fa bc d0 bd d6 11 41 bc
       0.07220699 0.07931068 -0.101922944 -0.011784038
0002e0 9f a7 9b bd de d8 8e 3d 8f 08 2c 3c 89 e2 e3 3c
       -0.076003306 0.06974958 0.010500087 0.027817981
0002f0 b7 bc ad bd 16 26 21 bd b4 47 9b 3d e4 f7 3d bd
       -0.0848326 -0.039342962 0.07582036 -0.046378985
000300 72 df 43 bc 9c 07 c2 3b 2a e0 85 bc ed a7 5f bd
       -0.011955129 0.0059213173 -0.016342241 -0.054603506
000310 57 df 04 bc 3b e0 a4 bc 85 fe 32 bd 8b f3 83 3d
       -0.008109889 -0.020126453 -0.04369976 0.064429365
000320 7d 3d cb bd b5 31 00 be 6e 55 51 bd 99 b1 a0 3d
       -0.09923837 -0.12518962 -0.051106863 0.07846374
000330 a9 fd d3 3d 29 e2 72 3c ca 78 1e bc 14 5e 41 bd
       0.10351116 0.014824429 -0.009672353 -0.04720886
000340 f5 bc 41 bd 88 1e d5 3d a0 60 0e 3e b4 71 6a bd
       -0.047299344 0.10406214 0.13904047 -0.057237342
000350 e5 d4 20 bd 1a fa 01 3e f1 ae 0a 3d d8 7c 7e bd
       -0.039265532 0.12693062 0.033858243 -0.06213078
000360 1b c1 8e 3a 74 2c 3f bd e9 33 d5 bc 3d 5d cd 3d
       0.001089129 -0.046673253 -0.02602573 0.100275494
000370 ff 71 d0 3d 11 6c 25 bd ae 7a b5 bd 88 88 60 3d
       0.10177993 -0.040386263 -0.0886129 0.054817706
000380 db 85 f9 3d c8 3d 08 3c 56 2e 9d 3d 2f 86 01 3d
       0.12183734 0.008315511 0.076748535 0.031622108
000390 ee 2e bf 3d 35 b1 63 3d 5d 64 de bd b4 5c c3 bb
       0.09335123 0.05558892 -0.108589865 -0.005961979
0003a0 27 c6 1d be 1d 51 3a bd bd ef 72 bb 49 3b 20 3d
       -0.1540762 -0.045487512 -0.0037069165 0.03911904
0003b0 9e 3f dc 3d 3c 59 b9 bd 13 e5 06 be 3e 45 31 bd
       0.107543215 -0.09050223 -0.13173322 -0.043278925
0003c0 3f 2d 35 be 6e 1c fd bd cb 56 46 3d a8 00 42 3e
       -0.17693041 -0.12358938 0.048422616 0.18945563
0003d0 b2 6d 93 3d ba ab b6 3d bf 19 f9 bc 86 00 a6 bd
       0.07198657 0.08919473 -0.030407785 -0.081055686
0003e0 86 bf 77 bd 50 a0 c0 bd 99 87 99 bd 6f e2 ae 3d
       -0.060485385 -0.09405577 -0.07496566 0.085392825
0003f0 75 e1 66 bd d9 bb f5 bd 9a e9 04 3e 29 db 05 3d
       -0.056367356 -0.1199872 0.12979737 0.03267971

fc2.bias f4 [16]
000000 c9 63 a2 b4 d4 eb 4a b3 e6 ef c2 b4 1c 80 60 b4
       -3.0247455e-07 -4.7246274e-08 -3.6309865e-07 -2.0908232e-07
000010 82 62 4b b4 e6 cb b7 34 da 4a d1 b4 01 81 18 b4
       -1.8941685e-07 3.4234762e-07 -3.8983745e-07 -1.4203034e-07
000020 75 7a e0 b3 f6 de f4 b0 3d 08 bb b3 3d 89 82 32
       -1.04530876e-07 -1.7816706e-09 -8.7093646e-08 1.51964e-08
000030 b2 e0 68 34 35 80 71 34 8a a1 2e 32 4d 3b 29 b4
       2.1688427e-07 2.2491515e-07 1.0164863e-08 -1.5760925e-07

bn2.weight f4 [16]
000000 58 3c e0 3e 2a dd 15 3f cc 2f 29 3f b7 32 d3 3e
       0.4379604 0.58540595 0.6608856 0.4124963
000010 7e 47 f1 3e f6 6c e5 3e b3 57 00 3f 53 c2 06 3f
       0.47124857 0.44809693 0.5013382 0.52640265
000020 c5 22 0c 3f 61 58 cc 3e 4c ad fb 3e 77 bb 0f 3f
       0.54740554 0.39911178 0.49155653 0.56145424
000030 7d 8a 17 3f 9f 55 00 3f fb 61 1c 3f e6 a4 c5 3e
       0.5919569 0.5013065 0.61087006 0.3860237

bn2.bias f4 [16]
000000 66 f9 e3 3d 77 65 f9 3d f8 10 04 bd 2a 27 86 3d
       0.11131553 0.12177556 -0.032242745 0.06550439
000010 3e 03 03 3e 76 80 24 3d 7c 54 75 3d 45 83 12 3d
       0.12794206 0.040161572 0.059895024 0.03576972
000020 da 77 ee bc 77 23 0c 3d ac fa e6 3d 4f b0 84 3d
       -0.029109884 0.03421351 0.112782806 0.06478941
000030 78 bf 31 3d 52 9e a7 bd f3 f8 79 3d 1b 82 eb 3d
       0.04339549 -0.08184494 0.061028432 0.11499425

bn2.running_mean f4 [16]
000000 e2 82 7d bb ea 04 91 bd cd 27 00 be ce a8 96 3d
       -0.0038682749 -0.070810154 -0.12515183 0.07356416
000010 7f 1b 90 bb 7e d6 b0 3a be 54 6c 3b c7 25 11 bc
       -0.004397809 0.0013491658 0.0036061252 -0.0088591045
000020 db 54 2f bd f5 b3 a9 3d 5c 50 9b 3b b4 7f e6 bb
       -0.042805534 0.08286277 0.004739804 -0.0070342664
000030 a0 f1 94 3d 45 94 c9 bc 54 ce a3 bd 30 0f eb bb
       0.07272649 -0.024606833 -0.07998338 -0.0071734414

bn2.running_var f4 [16]
000000 82 8f 8d 3b 42 f2 ad 3c d2 26 33 3d 25 97 51 3b
       0.004320086 0.021233682 0.043738194 0.0031980958
000010 2e 2a 45 3c 7f a4 d0 3b cd 7b 75 3c 2c 9f 8b 3c
       0.012033982 0.0063672657 0.01498313 0.017043673
000020 67 1d f7 3c b3 ac 73 3b 14 39 26 3c cb c5 6b 3c
       0.030165387 0.0037181794 0.010145444 0.014390419
000030 40 b3 a6 3c a8 0e 8f 3c 7a 44 01 3d 5d 36 2d 3b
       0.020349145 0.017463043 0.031559445 0.0026430108

fc_out.weight f4 [1, 16]
000000 3c 06 9e 3e 44 13 b3 be 38 90 f2 be 93 ae 94 be
       0.3086413 -0.34975636 -0.47375655 -0.2903944
000010 43 c4 90 3e 3d ea 84 3e 9a 50 9a 3e 68 53 9f 3e
       0.28274736 0.2595996 0.3013962 0.3111832
000020 47 ca e2 3e 05 01 70 be 30 5e 96 be 8b 2d b0 3e
       0.4429495 -0.23437889 -0.29368734 0.34409747
000030 e6 c5 b9 be 3b f3 a5 3e 9e 15 b8 be 46 21 98 3e
       -0.36283797 0.32412133 -0.35953993 0.29712886

exp_avg f4 [21, 21]
000000 64 35 a7 ba 9a 28 46 bb bf 2b 85 bb ce f2 f2 ba
       -0.0012757 -0.0030236603 -0.004064053 -0.0018535496
000010 c7 c1 9e 3c 0b 6c 44 3a 3e c2 6e bb f0 de 1a bb
       0.01937951 0.00074929063 -0.0036431695 -0.0023631416
000020 c7 90 07 3a 30 89 de 3a 32 26 d4 bb 1b fb c4 bb
       0.0005171415 0.0016978141 -0.00647428 -0.0060113794
000030 bd 00 33 3b 00 20 f5 bb 64 3e fe 3a 24 74 21 bc
       0.0027313672 -0.0074806213 0.0019397256 -0.00985435
000040 fd 26 63 3c 99 27 1b bc 01 e1 a7 39 f9 c3 8c ba
       0.013864276 -0.00946989 0.00032020363 -0.0010739557
000050 53 28 04 3c 51 63 0a 39 c7 d8 28 b9 fd fa 04 bb
       0.008066255 0.00013197704 -0.00016102484 -0.0020291202
000060 b8 de 4e 39 19 ce 7c bb 80 86 c8 ba f6 1e 5f ba
       0.0001972866 -0.0038574992 -0.0015298873 -0.00085113884
000070 09 95 b4 38 5e 69 1c 39 e7 90 97 39 1b ee bf ba
       8.610829e-05 0.00014916572 0.00028908925 -0.0014643105
000080 f4 5b b7 39 63 21 89 3b f9 4c d0 3a 62 ee 06 bb
       0.0003497299 0.004184888 0.001589208 -0.0020588865
000090 31 fc 95 ba 0a 50 b3 ba 69 74 f1 38 01 7b 17 3a
       -0.0011442957 -0.001368047 0.000115134586 0.0005778522
0000a0 d0 c4 a2 b8 3d 87 83 39 6c be 63 39 a2 c9 5f 3b
       -7.761421e-05 0.00025087027 0.00021719345 0.0034147282
0000b0 c5 2e 88 bb 4a ed a8 ba 64 91 48 bb b2 28 f6 bb
       -0.004155966 -0.00128881 -0.0030604238 -0.0075121755
0000c0 53 a8 d5 ba 22 76 aa ba c3 86 1e 3b a7 2c a4 3a
       -0.0016300775 -0.0013005177 0.002418921 0.0012525514
0000d0 86 65 2a 3a e2 67 96 3b ab a6 a5 3a c3 ca 6f 3b
       0.00065001135 0.0045900205 0.0012638172 0.0036589361
0000e0 52 11 95 b7 df 1b 13 3c 35 d7 22 bc 41 fd 94 3b
       -1.777025e-05 0.008978813 -0.009939005 0.004546792
0000f0 55 08 c6 3a c3 1b df ba 64 e4 7e ba a5 4f af b9
       0.0015108684 -0.0017021823 -0.0009723364 -0.0003343794
000100 e9 72 05 39 ac c7 99 3a 2d eb 94 37 aa 93 5c 3b
       0.00012726676 0.001173248 1.7752487e-05 0.003365735
000110 5f 7a 77 3a be a1 b6 b9 f8 5d d3 b9 6c 1d b3 b9
       0.0009440537 -0.00034834252 -0.00040315068 -0.00034163462
000120 4f 10 b9 b9 4d 0f 9c b9 37 71 7f ba ee 84 b2 ba
       -0.000352981 -0.0002976604 -0.00097443484 -0.0013619938
000130 50 0e b3 ba 23 10 81 3a 9c 63 0d ba 7a 7a c3 3a
       -0.0013660882 0.0009846728 -0.0005393566 0.001491382
000140 2a d3 c3 ba a1 01 0d ba 33 c0 00 ba 65 e3 c9 39
       -0.0014940251 -0.0005378966 -0.00049114524 0.0003850713
000150 93 05 39 ba 38 3a f2 ba 50 11 1a 3b 66 83 2d ba
       -0.00070580206 -0.0018480485 0.0023508854 -0.0006619006
000160 b8 da 47 3b b8 51 20 3b d2 cd 1d b9 61 e5 0a ba
       0.0030495357 0.002446277 -0.00015049361 -0.00052984623
000170 bc 2c 62 ba e3 a3 f4 b9 1a 4b c1 b9 8a dd 36 bb
       -0.0008627882 -0.00046661412 -0.00036867784 -0.0027903044
000180 d9 4c 82 ba 10 68 67 b9 4b 13 b0 3a 75 f7 3a bb
       -0.0009941115 -0.00022068643 0.0013433484 -0.0028528844
000190 b7 ed b2 3b 1a 63 14 bb fa fc 82 ba 03 39 34 b9
       0.0054604667 -0.0022642077 -0.0009993606 -0.00017187376
0001a0 d0 66 a1 3a df 08 e0 3a 6c 1e 0b 3b ab 15 6e bb
       0.0012313966 0.0017092488 0.002122785 -0.0036328833
0001b0 69 95 d6 3a 1e 53 0b 3c a1 3c 97 39 b5 0c 23 3b
       0.0016371432 0.008503703 0.00028846136 0.00248794
0001c0 8d d1 e6 3a c4 c3 a0 36 e0 d3 67 b8 63 42 a1 39
       0.0017610058 4.7911617e-06 -5.5272016e-05 0.00030757775
0001d0 25 b3 aa b8 8f 73 e8 ba 21 7c c0 bb c0 72 85 3a
       -8.1396e-05 -0.0017734634 -0.0058741723 0.0010181293
0001e0 14 81 f2 bb 28 d7 72 3b 5f bf fe ba 82 31 4f b9
       -0.007400641 0.0037054513 -0.0019435695 -0.00019759501
0001f0 07 40 c4 3a 88 d3 12 3c 87 42 cf 3a 07 97 53 3a
       0.0014972695 0.008961566 0.0015812673 0.0008071516
000200 f2 4c a4 b8 4b 94 d3 3a 30 1d 4b bb 1a 8d 36 3b
       -7.8344616e-05 0.0016142217 -0.003099274 0.00278551
000210 c7 a9 d3 3a 98 81 ce 3a c2 f3 e1 ba f0 a0 88 ba
       0.001614862 0.0015755175 -0.0017238783 -0.001042394
000220 3c 3d fe 3a e2 46 86 3a ce 8b ed 3a 4b 94 01 3b
       0.0019396911 0.0010244513 0.001812333 0.0019772227
000230 ed da dd ba ba e1 b3 3a 57 8f a0 bb b1 a5 26 3b
       -0.0016926207 0.0013723888 -0.0048999 0.002542835
000240 58 14 a5 ba 85 b5 20 3a de c7 02 3b 79 69 be b9
       -0.0012594564 0.0006130564 0.0019955556 -0.00036318207
000250 fc 76 e1 b9 58 c3 90 3a 3f 82 70 b9 db df e4 39
       -0.00043003995 0.0011044545 -0.00022936704 0.00043654334
000260 7a ca 30 3a 91 b2 da 38 ca d8 93 35 34 34 35 b9
       0.00067440385 0.000104283106 1.1015447e-06 -0.00017280952
000270 8a 9e 58 b9 e2 57 3d 39 52 27 88 b9 16 de 82 ba
       -0.00020658426 0.00018057183 -0.00025969237 -0.00099844
000280 b8 fd 9d 38 81 72 07 3a 14 2e 2a 3a 22 72 7c 3a
       7.533602e-05 0.0005166904 0.00064918515 0.0009630044
000290 2f 69 66 b9 ff 14 57 b9 5f ab 12 b9 1b b9 80 ba
       -0.00021973693 -0.0002051182 -0.00013987486 -0.0009820791
0002a0 d4 61 63 39 6d d7 ef b9 1a b4 24 bb 46 79 64 39
       0.00021684851 -0.00045746137 -0.0025131763 0.00021788952
0002b0 e2 c6 c5 3b 68 b7 63 bb 90 1e 97 ba 71 21 1f b9
       0.0060356716 -0.003474677 -0.0011529494 -0.0001517588
0002c0 d9 89 89 3b 3c 08 82 3b 84 88 34 bb 5a d7 ae ba
       0.004197341 0.003968267 -0.002754719 -0.0013339326
0002d0 47 67 a6 3b 41 e9 7b b8 6e c1 0c bb d9 fc 48 bb
       0.0050782296 -6.0060298e-05 -0.0021477598 -0.0030668287
0002e0 2a ce 37 3b a2 fb 18 bb 3b 73 6e 3b e4 e6 a6 3a
       0.0028046467 -0.0023343344 0.00363846 0.0012733606
0002f0 bb 2b 5e 3b 18 dc 95 39 11 9e 9b ba 8d 31 26 bb
       0.0033900577 0.00028583477 -0.0011872669 -0.0025359124
000300 27 40 eb 39 df f0 a1 3b 03 57 a8 3b 7d 85 56 b9
       0.0004487049 0.004942044 0.0051373257 -0.00020458359
000310 c4 7b b3 39 b3 e6 8e bb 12 f4 41 bb 19 6f 06 bb
       0.00034233753 -0.0043609976 -0.002959494 -0.0020512997
000320 bc 47 74 ba 6d 91 f9 38 1a c9 52 bb 92 19 f6 39
       -0.00093185506 0.00011900333 -0.0032163323 0.00046939828
000330 b2 88 88 bb 1e 69 3e 3b 64 e2 0a bb 8c ae 6c bb
       -0.004166686 0.0029054354 -0.0021192068 -0.003611478
000340 79 07 37 ba 6e 2e 87 3b 81 0b 41 ba f5 6d 02 bb
       -0.00069820095 0.004125408 -0.000736408 -0.0019901965
000350 ee e0 80 bb d6 0a b7 ba d6 f5 b1 3c 78 74 78 ba
       -0.0039330637 -0.0013965021 0.021723669 -0.00094778044
000360 13 ab 36 bb 80 6e f8 ba 48 e0 33 3b bb ef 8c 3b
       -0.0027872964 -0.001895383 0.0027446914 0.004301039
000370 c4 d5 93 bb 46 3a f6 bb 2b 60 47 3b 6b 7a c4 bb
       -0.004511567 -0.007514271 0.003042231 -0.0059960387
000380 d4 6a 8c 3a 69 7b 2d bc 55 17 3b 3c 66 bf 1e bc
       0.001071299 -0.010588505 0.011419137 -0.009689188
000390 06 68 1c 3b 38 66 b1 b9 56 a6 43 3c 51 7c c7 ba
       0.0023865714 -0.0003383623 0.011941513 -0.0015219544
0003a0 a8 dd c3 ba 57 57 bc b9 05 78 e7 ba 89 2f 77 bc
       -0.0014943378 -0.00035923228 -0.001765967 -0.015087017
0003b0 80 00 29 bb 0a 88 12 bb 15 84 ff ba 8a b0 d6 3a
       -0.0025787652 -0.0022358918 -0.001949432 0.0016379517
0003c0 b6 5a 99 3a 22 b8 ba 3a 67 bf 7b 3b f6 15 a7 3a
       0.0011700008 0.001424555 0.0038413645 0.0012747634
0003d0 4f 09 d8 3b f9 48 8c 3a c0 ef 1e 3c 65 1d f7 bb
       0.0065929065 0.00107029 0.009700716 -0.007541346
0003e0 e2 c5 c4 3b 6e 8b bf 3a 16 67 d9 ba 47 d5 dc bb
       0.006005035 0.0014613697 -0.0016586508 -0.006739292
0003f0 21 7c d4 ba a6 62 53 ba 9f 0f 02 b9 92 63 1d bb
       -0.001621131 -0.0008063711 -0.00012403585 -0.0024015647

exp_avg_sq f4 [21, 21]
000000 e2 97 72 38 c3 9a 8f 38 9e 87 23 39 f0 8f 1c 38
       5.7838748e-05 6.847598e-05 0.00015595413 3.732735e-05
000010 48 3b 94 39 8e 1e 27 39 26 57 4a 38 65 3e 2a 38
       0.00028272928 0.00015937744 4.8241716e-05 4.0589268e-05
000020 db ce dd 38 bd 41 a9 38 2c d3 8a 38 96 d2 aa 38
       0.00010576631 8.070793e-05 6.6196866e-05 8.1454564e-05
000030 a3 d6 e8 38 d1 c4 10 39 a6 25 c7 38 3f 0e 27 39
       0.00011102601 0.0001380623 9.496072e-05 0.00015931668
000040 11 d5 04 39 40 22 ce 38 d0 47 b8 38 22 e3 10 38
       0.00012667874 9.829225e-05 8.78718e-05 3.454381e-05
000050 c0 d5 68 39 5b 79 09 38 35 f7 21 38 45 1b d1 38
       0.00022204872 3.2776366e-05 3.861562e-05 9.970976e-05
000060 73 bf e0 37 34 7c d1 38 63 33 a8 38 4f 74 11 38
       2.6792031e-05 9.989031e-05 8.020436e-05 3.4679015e-05
000070 0d 6c e8 37 aa 92 97 38 62 be 96 38 2f 23 40 38
       2.770687e-05 7.2275594e-05 7.188019e-05 4.5809134e-05
000080 59 00 3b 38 de 75 b0 38 84 97 d4 38 bc 69 92 38
       4.4584598e-05 8.4142885e-05 0.0001013717 6.981517e-05
000090 d7 0e ac 38 cc 6a 8a 38 47 03 30 38 38 fa 8a 38
       8.204363e-05 6.600245e-05 4.1964722e-05 6.62696e-05
0000a0 32 fd d8 37 bc 2b c1 38 e3 ea 27 38 72 db 41 38
       2.586711e-05 9.211103e-05 4.0034658e-05 4.621916e-05
0000b0 42 58 e4 38 18 f4 2c 38 ce 72 03 39 09 21 06 39
       0.000108883265 4.1235326e-05 0.00012535902 0.00012791542
0000c0 10 ef 23 38 be 5c 20 38 82 33 c8 38 36 19 af 38
       3.9084873e-05 3.8233346e-05 9.546337e-05 8.349346e-05
0000d0 e0 5f 28 38 13 40 40 38 5d 91 a6 38 c5 07 92 38
       4.0143612e-05 4.583604e-05 7.942573e-05 6.96327e-05
0000e0 d7 93 b8 38 ef ec a4 38 bb 34 c8 38 47 be 71 38
       8.801341e-05 7.864262e-05 9.546565e-05 5.7636087e-05
0000f0 4f 81 af 38 f8 ac 29 38 98 d9 06 39 e7 69 43 37
       8.368736e-05 4.045383e-05 0.00012860296 1.1647563e-05
000100 28 1d 58 37 2c 35 d4 37 f6 36 45 37 85 32 03 38
       1.2881392e-05 2.529713e-05 1.1754912e-05 3.1279884e-05
000110 81 17 e1 37 bf 0f 50 37 1a 05 41 37 08 86 b6 37
       2.6833035e-05 1.2401432e-05 1.1504884e-05 2.1758504e-05
000120 b6 02 a2 37 5b 57 4d 37 bf 79 80 37 69 a3 c7 37
       1.9313167e-05 1.2239291e-05 1.5315482e-05 2.3798742e-05
000130 e4 15 ca 37 ce 8a aa 37 4b 94 bb 37 34 02 a8 37
       2.409047e-05 2.0330215e-05 2.2361191e-05 2.0028187e-05
000140 5f 1e 79 37 00 71 a5 37 f9 f7 2b 37 64 2c de 37
       1.4848628e-05 1.9722153e-05 1.025013e-05 2.6485133e-05
000150 71 4b 36 37 4a 31 5b 37 8a 94 03 38 5f 4a 11 37
       1.086561e-05 1.3064893e-05 3.137117e-05 8.659989e-06
000160 44 54 15 38 f5 c3 00 38 9d 55 3a 37 a8 4d 1b 37
       3.5602847e-05 3.0700077e-05 1.1106397e-05 9.256801e-06
000170 65 6e c8 37 d8 d9 a3 37 09 9d 82 37 28 22 75 37
       2.3893264e-05 1.9532556e-05 1.5570333e-05 1.4611091e-05
000180 27 db ac 37 93 02 3b 38 39 67 a8 37 2c 13 09 38
       2.0606049e-05 4.458667e-05 2.0075227e-05 3.26812e-05
000190 7c 69 c9 37 77 a4 83 37 1f ca a7 37 60 4c 08 37
       2.4010187e-05 1.5693002e-05 2.0002071e-05 8.124014e-06
0001a0 45 55 08 38 0e e0 b5 37 18 79 01 38 8a 41 fd 38
       3.250434e-05 2.1681215e-05 3.0868774e-05 0.00012076188
0001b0 eb 97 90 37 9e 60 c0 38 d4 a5 8e 38 b7 36 dc 37
       1.723688e-05 9.17327e-05 6.8019755e-05 2.6251522e-05
0001c0 44 e4 ab 37 41 91 7a 38 43 31 7c 38 c0 a5 21 38
       2.0491083e-05 5.9739923e-05 6.012736e-05 3.8539758e-05
0001d0 c2 92 29 38 6e 08 96 38 2d 4a ba 38 22 d2 9b 38
       4.042942e-05 7.1541275e-05 8.8829875e-05 7.430116e-05
0001e0 42 ac c8 38 49 d9 96 38 f1 d6 05 38 d1 60 51 38
       9.568829e-05 7.19303e-05 3.190985e-05 4.991965e-05
0001f0 58 08 7e 37 c5 d8 d5 38 d7 18 50 38 09 e3 90 38
       1.5141522e-05 0.00010197008 4.96142e-05 6.908744e-05
000200 4e 1f 90 39 bc 21 2a 38 d8 c0 39 39 f3 af 1d 39
       0.00027489144 4.0562576e-05 0.00017714815 0.00015038233
000210 9b a7 8f 38 7f 5c 5f 38 e3 fe cf 38 33 3d a0 38
       6.84999e-05 5.3253487e-05 9.9180055e-05 7.640794e-05
000220 96 90 d3 38 16 d6 a9 38 63 c9 2f 39 15 a0 26 39
       0.00010088195 8.0984246e-05 0.00016764323 0.00015890629
000230 87 29 01 39 38 aa 2c 39 1d 08 08 39 4a db 79 38
       0.00012317869 0.0001646661 0.00012972993 5.9570455e-05
000240 21 13 ac 38 c9 e3 06 38 e5 e1 3b 39 8a 2d 82 36
       8.205162e-05 3.216023e-05 0.00017917862 3.8796034e-06
000250 a4 d8 94 36 4d 69 15 37 d7 e8 26 36 7c 5e 03 37
       4.435964e-06 8.905609e-06 2.4871458e-06 7.830207e-06
000260 4e 7d ee 36 36 d2 5b 36 db 31 34 36 48 3a c9 36
       7.10754e-06 3.2755902e-06 2.685111e-06 5.9970516e-06
000270 26 5c b7 36 7b 8f 94 36 d7 7b 7f 36 aa 6b b2 36
       5.4645525e-06 4.427447e-06 3.8070045e-06 5.317347e-06
000280 9e 25 d8 36 b8 6c bc 36 c3 c5 06 37 0b f5 af 36
       6.441681e-06 5.615493e-06 8.033067e-06 5.243933e-06
000290 07 52 85 36 f0 cd a9 36 ef 83 17 36 33 c8 05 37
       3.973258e-06 5.0605668e-06 2.2577549e-06 7.97403e-06
0002a0 7e a7 80 38 44 b7 96 38 78 76 4e 39 eb 0b 5f 38
       6.1347135e-05 7.186693e-05 0.00019689824 5.3178443e-05
0002b0 45 9b 47 39 6a f4 17 39 6b 90 80 38 40 fb 65 38
       0.00019035961 0.00014491534 6.1304156e-05 5.483185e-05
0002c0 1d 70 01 39 f8 1f fa 38 80 82 8b 38 4a c5 c5 38
       0.00012344164 0.000119268836 6.652344e-05 9.43044e-05
0002d0 97 f4 00 39 51 ca 34 39 a8 17 f3 38 fb 90 28 39
       0.00012298148 0.00017241506 0.00011591549 0.00016075738
0002e0 86 6a 03 39 ac 6d d3 38 05 f9 eb 38 3e 3c 49 38
       0.00012532817 0.00010081692 0.00011252057 4.797824e-05
0002f0 a4 89 53 39 80 a9 49 38 29 da 6b 38 54 23 ff 38
       0.00020173803 4.8079994e-05 5.6231544e-05 0.00012165928
000300 27 7c 28 38 14 09 ef 38 0d 88 d5 38 1c ff 57 38
       4.0169947e-05 0.00011398099 0.00010181973 5.1497584e-05
000310 a2 df 39 38 cb 0a ba 38 52 f2 bc 38 49 af 80 38
       4.431571e-05 8.8711815e-05 9.009674e-05 6.136165e-05
000320 8c 24 85 38 e2 8b a0 38 2d 59 cd 38 25 92 a0 38
       6.3487416e-05 7.65545e-05 9.791772e-05 7.656616e-05
000330 43 45 dd 38 30 e1 ba 38 10 b7 7a 38 d3 d3 a0 38
       0.00010551002 8.9111156e-05 5.9775135e-05 7.66885e-05
000340 41 7d 19 38 ed fc f3 38 8e d5 4e 38 74 ee 6c 38
       3.6594694e-05 0.00011634254 4.9313116e-05 5.648886e-05
000350 e6 e4 f0 38 33 2c 03 38 c3 c3 54 39 a1 94 12 39
       0.000114867275 3.1273998e-05 0.00020290822 0.00013979014
000360 d6 5f 20 38 01 00 0b 38 57 c4 dc 38 35 c7 c5 38
       3.8236227e-05 3.3140186e-05 0.000105269886 9.430797e-05
000370 79 6c 48 38 f2 09 95 38 70 57 ad 38 d3 ab d4 38
       4.778474e-05 7.106726e-05 8.265569e-05 0.000101409525
000380 1e 5c c3 38 f1 11 09 39 75 e6 c3 38 a3 21 c2 38
       9.315483e-05 0.00013072022 9.3412506e-05 9.256906e-05
000390 ea 3b b9 38 35 c5 f4 37 de f1 43 39 24 de 92 38
       8.832647e-05 2.9178898e-05 0.00018686752 7.0031994e-05
0003a0 b7 42 b3 38 ff c7 6b 39 c7 4d 68 38 40 b6 89 39
       8.547812e-05 0.00022485851 5.5385546e-05 0.00026266463
0003b0 b6 6a 63 39 70 21 8e 38 9c 6a 74 38 93 a4 28 39
       0.0002168816 6.777316e-05 5.827342e-05 0.00016083037
0003c0 cd 2f 03 39 6f fa c7 38 08 53 e7 38 17 4d 19 39
       0.0001251094 9.535706e-05 0.00011030404 0.00014619935
0003d0 21 24 3f 39 92 cb 16 39 c5 a6 55 39 6a d6 2d 39
       0.00018228639 0.0001438095 0.0002037539 0.00016578441
0003e0 53 e3 01 39 ae a0 0d 39 81 1a 4a 38 52 33 84 39
       0.00012387084 0.00013506666 4.8185237e-05 0.0002521524
0003f0 32 1a 34 38 a0 89 52 38 ee 38 f9 38 34 da 2a 38
       4.293974e-05 5.0196075e-05 0.00011883849 4.0734376e-05
